GDG_Final_Assignment/checkpoint_TaskA.pth (torch, 22449 bytes, 6 tensors)

fc_overall.weight f4 [3, 512]
000000 eb 90 fc 3c 80 92 bc bc 62 ad 41 bc 24 b2 dd bc
       0.030830821 -0.023019075 -0.011821123 -0.027062483
000010 39 e0 4c bb a7 f1 2b 3d e6 b7 3a 3c 6a 1a 19 3d
       -0.0031261577 0.041978505 0.011396384 0.037378706
000020 8e 0d 0a 3d 17 55 16 3a 86 e3 97 3c fc 48 d9 3c
       0.033704333 0.0005734725 0.018541109 0.02652406
000030 c9 f8 fa ba 7a 61 d3 bb 1b d0 12 3d de d8 e8 bc
       -0.001914763 -0.006450829 0.035842996 -0.028423723
000040 f9 9e 09 bd 9d 29 84 3c b5 c8 2e 3d a2 4c 07 bd
       -0.033598874 0.016133124 0.042671878 -0.033032067
000050 73 0a cd 3c 4f c6 ea bb 22 7c b0 3c f0 23 d6 bc
       0.025029397 -0.0071647535 0.021543566 -0.026140183
000060 1c ff ee bb 89 33 34 3c 27 2c 8e 3c d8 09 c8 bc
       -0.007293595 0.010998615 0.017355038 -0.024418756
000070 69 a2 2f 3d 25 62 e7 3c f7 0b 17 3c a3 9e c4 bb
       0.042879496 0.028245041 0.009219161 -0.0060003563
000080 27 28 49 3c 45 9e 09 bd 44 fb be 3b f1 59 f6 3b
       0.0122776395 -0.033598203 0.005828293 0.007518046
000090 b6 85 a0 3c d2 b5 51 bc b0 65 28 bd ff 05 68 3c
       0.019595008 -0.012799697 -0.0411126 0.014161586
0000a0 8a 24 d0 bb be b7 03 3d 7d 4c d5 bc ac 42 df 3c
       -0.006352012 0.032157652 -0.026037449 0.027253471
0000b0 bb c4 89 bb 19 1f f7 bb f3 3a 8c bc 12 cd 3d bc
       -0.0042043603 -0.007541549 -0.017117953 -0.011584537
0000c0 ac a3 4e bc 6a 84 20 bd 71 f4 fe bc 0a 20 e4 bb
       -0.012612265 -0.03918878 -0.031122418 -0.006961827
0000d0 0f fa 90 bc cd d7 72 3c bb 62 38 bc c7 bc da bc
       -0.017697362 0.014821959 -0.011254008 -0.026701344
0000e0 68 33 5b 3a 82 2d c1 3c 4c 15 a1 bb 64 a1 b1 bb
       0.0008361847 0.02358127 -0.004915869 -0.0054208506
0000f0 3d ba fa 3c 03 45 6b 3c 2b 1f 0e bd a8 43 13 bd
       0.030606383 0.014359715 -0.034697693 -0.035953194
000100 75 d8 c7 bc 81 58 0c 3d 7f 8e a3 3c 7c a5 60 bc
       -0.024395207 0.03426409 0.019965408 -0.01371133
000110 6c 58 2d 3d 2e 4c 4a bc 7e c6 21 bc c3 5b 10 3d
       0.042320654 -0.012347264 -0.009873984 0.03524376
000120 70 88 1a 3d dd 9e 03 3b a8 7a d3 3b 75 a9 c6 3c
       0.037727773 0.0020083704 0.0064538307 0.024250725
000130 5e 93 b1 bc d3 80 a4 3b e9 02 65 bb d7 08 28 bd
       -0.021676715 0.00502024 -0.0034944362 -0.041024055
000140 da 33 25 3d 5e 0e ae bc a9 03 fc ba 48 9a 0b bd
       0.040332653 -0.021247085 -0.0019227165 -0.03408268
000150 82 b9 ba 3c b0 93 a3 3c 8f 62 74 bb c2 66 35 bd
       0.022793535 0.019967884 -0.003729019 -0.04428745
000160 a8 69 0b 3d 87 b1 bd bc e6 ed 8e 3c fa 5e d1 3c
       0.03403631 -0.02315594 0.017447423 0.025557984
000170 44 72 fb bb 53 e1 bf bb 31 75 ac 3c a4 51 c7 bc
       -0.0076735336 -0.005855718 0.021051975 -0.024330921
000180 e1 12 13 3d 9d 38 5a bc 9b d8 de 3b 46 c3 af 3a
       0.035906676 -0.013319162 0.0068007237 0.0013409636
000190 1a e8 92 3c 04 00 ed 3c 3c 9d 2c bc e8 84 bc bc
       0.01793294 0.028930672 -0.0105355345 -0.023012593
0001a0 3a 0c 08 bd 15 cd 6e 3c f6 61 71 b9 47 95 aa 3c
       -0.033214785 0.014575263 -0.00023020044 0.020823134
0001b0 68 79 8e bc e4 8d 0a 3d 19 78 96 bb a1 92 19 3d
       -0.017391875 0.033826724 -0.0045919535 0.03749335
0001c0 5d 88 1c 3d e4 e7 b0 3c b2 72 30 bc ac 7a 2f 3d
       0.038215984 0.021594949 -0.010769533 0.0428416
0001d0 f2 f6 82 bc 98 86 27 3c d1 15 75 3b 32 3b b2 bc
       -0.015986893 0.010224961 0.0037397037 -0.021756742
0001e0 ad e1 81 bc f1 a5 1f bd c5 82 aa 3c 26 13 96 bc
       -0.01585468 -0.038976613 0.020814309 -0.018319678
0001f0 f7 54 99 3b e4 6f c1 bb 6d b7 21 3c 1c 3d 9c 3c
       0.004679318 -0.005903231 0.009870392 0.019072108
000200 bb c3 93 3c 58 df 59 bc 4f 2f 92 3c 1f dd 16 3d
       0.018037667 -0.013297878 0.017844824 0.03683197
000210 d5 d6 bf 3c 38 9b cc 3c fc 86 b4 3c 2d ea 15 bd
       0.02341787 0.024976358 0.022037022 -0.03660028
000220 98 a7 db 3c 0b 13 29 bd 82 99 1e 3c 88 d7 24 3d
       0.026813313 -0.041277926 0.009680154 0.04024461
000230 0a 6a 11 3c 72 06 da bc 21 3a 6f 3b bc e0 2b bc
       0.008875379 -0.026614401 0.0036503153 -0.010490593
000240 e6 ba 96 3c 1a d9 4a bc 84 c4 d6 bb 59 bd da 3c
       0.018399667 -0.012380863 -0.006554188 0.026701616
000250 01 8e 1b 3d ac d3 b3 3b b9 0d 4f 3c c3 70 9e bc
       0.037977222 0.0054878797 0.012637549 -0.019340878
000260 1c b8 c8 bb 35 2b 22 bd 9d f0 ac bb 5e 0b 57 bb
       -0.006125463 -0.039591987 -0.005277707 -0.0032813172
000270 7c a4 76 3b 13 c6 a8 3c bf 78 07 3d 72 f6 7d bc
       0.0037634661 0.020602262 0.033074137 -0.015500652
000280 99 da 17 3d 02 a3 00 bd bb 7e 21 3d 0f dc d2 3c
       0.037073705 -0.031405456 0.0394275 0.025739698
000290 85 de ab 3c 75 ff 59 3c b1 5e aa 3c 69 b0 9f b9
       0.020980129 0.013305535 0.020797106 -0.0003045828
0002a0 a5 76 16 bc e2 93 a6 bc f2 cf c7 bb b5 5d 12 bd
       -0.0091835605 -0.020334188 -0.006097787 -0.035733897
0002b0 a4 e1 23 bd 37 86 1e 3d 5d af 1e bd 2b 6c 94 bc
       -0.04001011 0.038702216 -0.03874146 -0.018117985
0002c0 89 fd 3b bc 66 84 5e 3c db c0 e8 bc 41 a0 2f 3c
       -0.011474022 0.013581371 -0.028412273 0.01071936
0002d0 86 6a a1 ba d4 d4 18 3c fa b6 ef 3c 1b ce 8f 3c
       -0.0012315072 0.009328086 0.029262055 0.017554333
0002e0 e7 36 26 bc 1a c6 fb 3b 0b 65 e3 bc 96 2b f9 bc
       -0.010144926 0.0076835277 -0.027758142 -0.030416291
0002f0 bf d1 26 3a 1c e6 cc 3b bb 49 09 bd 2c 5e 61 bc
       0.0006363652 0.006253017 -0.03351758 -0.0137553625
000300 e3 27 7e 3c 10 95 1d 3d 88 f5 a8 bc 11 f9 39 bc
       0.015512439 0.038472235 -0.02062489 -0.011350886
000310 25 8f 2d bd 0f b1 10 3d 95 26 2d bc 91 dd 5d 3c
       -0.04237284 0.035325106 -0.010568281 0.013541595
000320 d9 96 b7 3b 48 20 89 bc ec 81 43 3c 74 ec bd bc
       0.0056026992 -0.016739026 0.011932831 -0.023184039
000330 aa 48 c5 bc a4 89 2a bd a5 d7 1b b8 24 03 8c 3c
       -0.0240825 -0.04163517 -3.7155714e-05 0.017091341
000340 43 17 2a bb 6f 36 a0 bc 8d 7e 32 bd bb 99 8a bb
       -0.0025953806 -0.019557206 -0.04357772 -0.004229752
000350 50 13 e9 3c 2e 57 09 3d dc ac 25 3d e7 54 37 bb
       0.028451592 0.033530407 0.040448055 -0.002797419
000360 59 64 2e bd 17 e0 c3 bc 3f e4 c8 3b c8 c5 d7 3c
       -0.042576168 -0.023910565 0.0061307247 0.026339427
000370 f2 53 6c 3c db 72 79 3c c4 f4 31 bc ba 08 61 3c
       0.014424311 0.015225138 -0.010861579 0.013734991
000380 68 c1 07 bc df a3 f7 3c 9e f5 28 bc 8e 13 d2 3c
       -0.008285858 0.030229507 -0.010312466 0.02564409
000390 cf 1b 00 bd 47 ab 10 3d 37 aa ae 3c 89 d6 04 bc
       -0.03127652 0.035319593 0.0213214 -0.00810779
0003a0 1d a4 33 bd e6 e1 01 bc 47 7f b7 3c 45 d2 29 3c
       -0.043857682 -0.007927394 0.022399558 0.010365074
0003b0 1b 02 f4 3c 45 97 c5 bc 8e d5 2a bd 20 17 dd bc
       0.02978616 -0.024119982 -0.041707568 -0.026988566
0003c0 95 01 bb 3c 07 49 fa bc 74 63 a8 bb c9 48 88 bc
       0.022827903 -0.0305524 -0.005138809 -0.01663627
0003d0 07 de 5d bc 96 62 f9 3c 46 a7 19 3d 9f 48 e3 3c
       -0.013541705 0.030442517 0.03751304 0.02774459
0003e0 53 90 1b 3d 74 69 ca bb 21 d1 23 3d 3a 3e 71 3c
       0.037979435 -0.006177122 0.039994363 0.014724309
0003f0 25 02 02 bd ad 10 5c bc 46 6e b8 3b 92 b8 e2 bb
       -0.031740326 -0.01343171 0.00562838 -0.006918975

fc_overall.bias f4 [3]
000000 04 00 fd 3a fa e4 ef bc 09 77 90 3d
       0.0019302373 -0.02928399 0.07053954

exp_avg f4 [3, 512]
000000 0a 90 4e 3d 44 4c 8d bb d3 5e 39 3c 37 ae 95 ba
       0.050430335 -0.00431207 0.011314112 -0.0011419718
000010 3f 70 e5 bb 7f 2a de 3b c4 d1 20 bb b2 27 e0 3a
       -0.007001906 0.0067799683 -0.0024539093 0.0017101674
000020 c8 75 ec 3a 97 d9 d5 bb 90 ad 06 bc 52 fb 82 ba
       0.0018040473 -0.006526183 -0.008220091 -0.0009993112
000030 6d 4a 64 ba a0 75 82 bb 75 08 8a bb 8b 39 34 3b
       -0.00087086 -0.003981307 -0.004212434 0.0027500119
000040 2d 4d 53 3c 28 81 06 3c ad 2f a8 3b 32 d3 cd 3a
       0.012896818 0.008209504 0.0051326365 0.00157032
000050 47 55 36 3b 32 57 17 3b 49 ee a1 3b c2 3d 74 bb
       0.0027821825 0.0023092744 0.004941736 -0.0037268256
000060 2f e3 0f 3b 2d d2 a0 3a 32 ac 1f 3b 85 67 c8 39
       0.002195548 0.0012269669 0.002436411 0.000382241
000070 ad fe 8a ba 5c 96 c8 bb 8b 9f 9c 3b da c4 1a bb
       -0.0010604464 -0.00612144 0.004779761 -0.0023615868
000080 50 da 5b bb bb 07 99 ba ce 47 13 3b b0 1a 70 b9
       -0.0033546872 -0.0011675277 0.002247322 -0.00022898125
000090 0e 28 87 bb 0a 0c 08 3b 1c b8 37 bb fa 40 1f bb
       -0.004124648 0.002075913 -0.0028033322 -0.0024300204
0000a0 59 d9 e6 bb bf 1d ed 3b 46 61 49 3a 6d 7a 16 3b
       -0.007044953 0.007236212 0.00076820364 0.0022961155
0000b0 a7 74 b6 bb 3c 34 48 3a 40 c1 86 bb ca 4d c7 3a
       -0.0055681053 0.0007637178 -0.0041123927 0.0015205678
0000c0 0d 64 db 3a 87 a5 9f 3a d8 92 69 b9 22 d6 e2 ba
       0.0016738191 0.0012180068 -0.00022275315 -0.0017306248
0000d0 03 50 b6 ba 07 3c 7d bb d6 6d 33 ba 19 7a 39 bb
       -0.0013909343 -0.0038640515 -0.0006844675 -0.0028301536
0000e0 ae e2 2b bb 1e ba 99 3b 41 b7 86 ba f9 c3 32 3b
       -0.002622764 0.0046913764 -0.0010278003 0.0027277453
0000f0 8d c6 a4 3a ea 88 00 39 ab e3 98 ba 48 88 3e bb
       0.001257138 0.00012258036 -0.001166453 -0.002907293
000100 f7 23 2c b9 1c d7 45 bb 77 ac 0f b8 73 d9 54 3b
       -0.00016416596 -0.003018803 -3.4254477e-05 0.0032478243
000110 46 f1 1b ba 19 49 a4 ba 2f 89 dc ba 50 f8 43 3b
       -0.00059487333 -0.0012533992 -0.0016825552 0.0029902644
000120 70 69 6d bb 7a f1 c2 ba 98 39 04 3b d5 58 1a 3b
       -0.0036226176 -0.0014872991 0.002017593 0.0023551483
000130 20 83 73 3b 17 fd ec b9 d8 36 08 3b 1c b0 5a bb
       0.0037157014 -0.00045201994 0.0020784643 -0.003336913
000140 f3 89 bd b8 00 99 9f ba ec 32 23 ba 5a 2f 60 bb
       -9.037917e-05 -0.0012176335 -0.00062255445 -0.0034207911
000150 bd 8c cd 3a dd df 00 bb af 92 95 3b 42 38 74 3a
       0.0015682202 -0.0019664683 0.004564605 0.00093162444
000160 2f 09 9b 39 95 69 18 3b 05 78 cf 3b 4f 45 67 3a
       0.00029570746 0.0023256291 0.006331446 0.00088222785
000170 84 29 a2 ba ef b1 b8 39 fb 89 40 3b 97 ff 53 3b
       -0.0012371992 0.00035227786 0.0029379118 0.0032348388
000180 d8 7d 17 ba 8e 7c 40 38 8c 72 fa 3a 0d 2b 06 3b
       -0.0005778945 4.5892368e-05 0.0019107624 0.0020472438
000190 23 25 7d ba 28 36 86 3a 16 58 6b 3a 89 d0 56 3a
       -0.0009656718 0.0010239528 0.00089776644 0.00081945263
0001a0 a7 01 41 ba 80 b6 fe ba 79 ae f3 3a 7e 25 9d b9
       -0.0007362612 -0.0019433051 0.0018591426 -0.00029973307
0001b0 60 77 ae b9 db 83 b2 b9 4d 44 f8 39 25 10 bd 39
       -0.00033276808 -0.00034049046 0.00047353134 0.00036060918
0001c0 07 1d 33 3a 4c a1 36 b8 a6 a0 82 3a 91 02 79 3b
       0.00068326335 -4.35424e-05 0.000996609 0.0037995914
0001d0 34 5f 3a 3b e7 1e 2e bb f4 e8 ce ba 29 4e 51 bb
       0.0028438093 -0.0026568712 -0.0015785978 -0.0031937456
0001e0 ad 73 41 bb d5 2c 13 39 59 35 31 3b d4 87 b5 b9
       -0.002951841 0.00014035714 0.0027039854 -0.0003462421
0001f0 a5 eb 6d ba d8 04 e1 b8 b8 de 82 ba cd 80 dd ba
       -0.0009075946 -0.00010729738 -0.0009984588 -0.0016899348
000200 fc ae 25 ba 35 f2 55 3a f4 68 c6 3a 23 50 53 bb
       -0.0006320325 0.0008161397 0.001513748 -0.003224381
000210 5d d0 1f 3b e3 c7 44 bb a4 04 43 ba fd 96 e5 ba
       0.0024385669 -0.0030026368 -0.0007439351 -0.0017516311
000220 60 34 39 3a 79 3f 9c 3a 41 db 7f b9 f9 53 16 bb
       0.00070649944 0.0011920772 -0.00024400374 -0.0022938235
000230 8f 4f 06 bb 76 0d 06 3a 3f 24 84 3a cc 53 24 3b
       -0.0020494198 0.00051137 0.0010081603 0.002507436
000240 d9 a7 91 39 72 4f 12 3b 4a 2d 8b 3a ef e5 9d ba
       0.0002778161 0.0022325185 0.0010618356 -0.0012046675
000250 9c 95 ee 3a 78 fb f7 37 48 b5 1a 39 9e a4 22 3b
       0.0018202546 2.9561794e-05 0.00014754117 0.0024817358
000260 4a 92 d7 b8 99 9f 4c bb fa bd 08 bb 8b ae ae ba
       -0.00010279247 -0.0031223057 -0.0020865188 -0.0013327164
000270 0b b8 33 3a 3e 13 a3 3a 30 e6 1c 3a 41 de 1f ba
       0.00068557326 0.0012441648 0.00059852283 -0.0006098487
000280 66 af 14 bb 8e 8a e0 39 16 69 5a ba 7e 65 e6 3a
       -0.0022687553 0.0004282784 -0.0008331699 0.0017577854
000290 6c 7f d2 3a dc 82 91 3a 3c 05 e5 b7 49 c7 bf 39
       0.0016059703 0.0011101621 -2.7301365e-05 0.00036578838
0002a0 ef 83 03 3a 30 fd 0b ba 12 d1 39 3a f6 4c 00 bb
       0.0005016913 -0.0005340157 0.0007088344 -0.0019577122
0002b0 fc 17 61 3a 1a 4a bb 3a a7 33 02 bb 6b 2a 04 ba
       0.0008586643 0.0014289052 -0.0019867213 -0.0005041721
0002c0 84 0e 39 3b a4 c2 a2 39 46 58 55 ba e7 ce fd 39
       0.0028237412 0.00031044066 -0.0008138459 0.00048410075
0002d0 16 e7 5c 3a d2 75 1c 3b de 60 7f 39 4f 52 fe ba
       0.00084267685 0.0023873937 0.00024354781 -0.0019403192
0002e0 37 ab 13 3b 33 33 5b b8 a5 8a df b9 5b 1b 08 38
       0.0022532472 -5.226135e-05 -0.00042637173 3.2450404e-05
0002f0 6f 58 a6 37 2b 64 62 ba 18 19 17 3a 7f be 2c 3b
       1.9829922e-05 -0.0008636142 0.0005763932 0.0026358662
000300 44 1d 99 ba 9f c0 13 3a 53 0e 8c 3a 54 ea 0d 3a
       -0.0011681695 0.0005636308 0.0010685421 0.0005413641
000310 6a f8 71 3a 4b 87 eb 3a e1 da 21 b9 a6 08 38 ba
       0.0009230437 0.0017969398 -0.00015435695 -0.00070203317
000320 cc 90 f0 39 7e 14 3e 3a f6 9a eb ba 81 93 b2 3a
       0.0004588425 0.00072509784 -0.0017975259 0.0013624282
000330 36 b9 f2 b9 fb 44 a6 39 27 5c 2a bb a2 e6 22 ba
       -0.0004629583 0.00031713382 -0.0025994868 -0.00062141765
000340 c2 fa fb 39 0d 25 e1 39 25 ec c7 ba 13 a9 d0 ba
       0.0004806128 0.0004294295 -0.0015252872 -0.0015919529
000350 88 c6 b9 39 b5 f3 15 39 01 c2 1b 3a 51 72 af 3a
       0.00035433867 0.00014300535 0.00059416896 0.0013385509
000360 b3 79 b5 39 8f 49 a9 39 47 39 23 ba 80 9c 9c 3a
       0.00034613683 0.00032288997 -0.00062264915 0.0011948496
000370 0a 8f bb 3a bd e4 03 bb 58 38 ed 3a 95 fb 2d 3a
       0.0014309597 -0.0020125352 0.0018098457 0.0006636915
000380 25 14 ef ba 32 d5 93 ba a4 25 08 bb 41 a1 fc ba
       -0.0018240256 -0.0011278747 -0.0020774389 -0.0019274132
000390 46 fe 98 3a 0e 0f b3 38 49 5e b8 ba 64 03 f0 39
       0.0011672459 8.538189e-05 -0.0014066185 0.00045778893
0003a0 4f 56 bb 3a d2 a3 d1 b9 87 8b ad 3a e3 ed c5 39
       0.001429269 -0.00039985642 0.0013240435 0.00037752007
0003b0 56 25 44 39 6a 66 8b 39 3a d3 b4 39 08 97 2e ba
       0.00018705925 0.0002658845 0.0003448965 -0.00066600787
0003c0 53 21 d2 ba ad c1 9a 38 da 72 63 3a 1d 96 98 3a
       -0.001603166 7.379367e-05 0.0008676477 0.0011641417
0003d0 ac aa e0 b8 8d 7e 27 ba 2b a6 2a 39 11 ad 29 ba
       -0.000107129425 -0.0006389402 0.00016274366 -0.0006472627
0003e0 4a 10 a7 b9 a4 7b 1a 3a 29 f3 9e 39 e2 ce 21 39
       -0.00031864858 0.00058930577 0.00030317277 0.00015431226
0003f0 3d 40 47 3a c9 7e ab 3a ba 1a 25 ba b0 82 8d 3a
       0.000760082 0.001308405 -0.0006298233 0.0010796394

exp_avg_sq f4 [3, 512]
000000 e0 77 69 3c 60 5b 85 3b 9a 62 39 3b 2d 2f 0b 3b
       0.014249772 0.0040697306 0.002828753 0.0021237836
000010 99 aa da 3a 0f ff c9 3a 33 ce a4 3a 00 20 a2 3a
       0.0016682922 0.0015411096 0.0012573659 0.0012369156
000020 bb 7d 84 3a 78 89 62 3a a1 c9 5b 3a 70 20 44 3a
       0.0010108271 0.00086417 0.0008384232 0.000748164
000030 d8 31 37 3a 10 ed 2e 3a 8e 6a 3a 3a b7 77 0d 3a
       0.00069883233 0.00066728983 0.0007111215 0.0005396562
000040 f0 6d 0b 3a 24 c1 02 3a de 48 f6 39 7f 94 df 39
       0.0005318811 0.00049878866 0.00046975067 0.00042644513
000050 0f 5e d2 39 de d0 c9 39 d2 ad b4 39 2b 13 cc 39
       0.000401244 0.00038493326 0.00034461782 0.00038924193
000060 d3 50 b5 39 d4 6b ba 39 85 83 b3 39 33 2f ad 39
       0.0003458323 0.00035557023 0.0003423953 0.00033032298
000070 89 eb a8 39 4f 84 9f 39 2b 6b 8f 39 2e 1b 8d 39
       0.00032218944 0.0003042542 0.00027354932 0.00026913866
000080 14 b5 8c 39 83 94 87 39 7a 2c 6e 39 26 19 70 39
       0.00026837795 0.00025859856 0.00022714018 0.00022897552
000090 26 52 6a 39 b6 0b 65 39 ad 2e 63 39 77 f5 5e 39
       0.00022346582 0.00021843505 0.00021665795 0.00021263013
0000a0 14 54 5f 39 0b 9a 50 39 a8 bb 54 39 43 af 4c 39
       0.00021298259 0.00019893811 0.00020287803 0.00019520246
0000b0 17 ab 53 39 d7 b4 36 39 46 67 47 39 0e d5 2c 39
       0.00020186264 0.0001742424 0.00019016591 0.00016482567
0000c0 24 f1 2d 39 19 1d 3c 39 67 e1 29 39 c5 9f 35 39
       0.00016588398 0.00017939917 0.00016201065 0.00017321024
0000d0 ce 4d 2a 39 00 74 28 39 81 72 26 39 3e a8 13 39
       0.00016241448 0.00016064942 0.0001587365 0.00014081688
0000e0 c8 52 14 39 1b ab 0e 39 19 c9 0e 39 38 4e 10 39
       0.00014145218 0.00013605917 0.0001361709 0.00013762049
0000f0 ba 0a 02 39 09 45 07 39 ed 58 02 39 c3 aa 0a 39
       0.00012401762 0.00012900321 0.00012430894 0.00013224319
000100 2b 9e 02 39 9d b7 ff 38 bc 4f e9 38 65 f6 02 39
       0.00012456688 0.00012193548 0.000111251575 0.00012489555
000110 6a a2 e8 38 81 85 d8 38 2f 47 eb 38 98 07 eb 38
       0.00011092874 0.0001032455 0.00011218932 0.00011207088
000120 b7 67 de 38 7d 8e cc 38 4b 22 d5 38 1d 3a d8 38
       0.00010605103 9.7540185e-05 0.00010163019 0.00010310507
000130 d3 50 be 38 72 18 d6 38 fd 66 cc 38 4a d9 b2 38
       9.074961e-05 0.000102088685 9.746661e-05 8.528175e-05
000140 b2 af bc 38 9c ac bd 38 e8 d2 bc 38 79 1d bb 38
       8.9972644e-05 9.044373e-05 9.003823e-05 8.9223446e-05
000150 45 2d b0 38 46 a4 b2 38 e2 6c b8 38 87 7d a1 38
       8.400766e-05 8.5183e-05 8.794085e-05 7.7004595e-05
000160 9e 04 aa 38 45 5a a3 38 fb ab a5 38 2b 9d 9c 38
       8.107092e-05 7.78926e-05 7.899847e-05 7.4679345e-05
000170 a5 1a aa 38 0d 5b a0 38 a4 24 9a 38 e1 ec 94 38
       8.1111946e-05 7.646354e-05 7.350117e-05 7.101312e-05
000180 74 4c 9e 38 5f 40 89 38 e9 62 a3 38 82 4c 8f 38
       7.5482676e-05 6.544659e-05 7.790869e-05 6.833022e-05
000190 92 ae 8d 38 2b 15 86 38 7b cd 90 38 e9 52 83 38
       6.75592e-05 6.393561e-05 6.904729e-05 6.26201e-05
0001a0 09 15 86 38 b2 92 88 38 77 ce 81 38 3e 5d 73 38
       6.393536e-05 6.5123095e-05 6.1896564e-05 5.8022553e-05
0001b0 13 37 7c 38 38 48 65 38 c0 ba 76 38 e9 e4 6b 38
       6.0132774e-05 5.4665114e-05 5.8824895e-05 5.6241555e-05
0001c0 6f 73 6a 38 39 5d 6b 38 e0 85 68 38 ae 56 59 38
       5.5897453e-05 5.6115186e-05 5.543779e-05 5.181756e-05
0001d0 fe a8 58 38 0d f2 5b 38 93 d1 63 38 db 0a 58 38
       5.16558e-05 5.2439096e-05 5.43162e-05 5.1508523e-05
0001e0 a6 c3 50 38 cb 9e 55 38 5e 81 5c 38 e8 67 56 38
       4.9773276e-05 5.0931045e-05 5.257257e-05 5.1118346e-05
0001f0 9d 04 3f 38 22 8a 57 38 9c b3 47 38 d7 c4 3a 38
       4.5542245e-05 5.138864e-05 4.761257e-05 4.4529177e-05
000200 c0 b1 31 38 c6 6a 3e 38 43 5c 3d 38 68 1c 3d 38
       4.236563e-05 4.539897e-05 4.5147037e-05 4.5087567e-05
000210 ce 3c 3a 38 3a fd 35 38 6e cf 32 38 14 45 31 38
       4.4402484e-05 4.33896e-05 4.263169e-05 4.2264423e-05
000220 5c 83 34 38 c7 ad 39 38 c1 2f 28 38 30 f0 28 38
       4.3037682e-05 4.426928e-05 4.0098796e-05 4.0278013e-05
000230 2f fa 2a 38 21 67 28 38 a8 80 2b 38 95 04 22 38
       4.076416e-05 4.0150368e-05 4.0889397e-05 3.8628077e-05
000240 88 f5 20 38 42 21 20 38 65 03 20 38 1d 9b 1a 38
       3.837564e-05 3.8177946e-05 3.8150134e-05 3.686092e-05
000250 fb 5c 1e 38 40 8f 1f 38 5d 9a 1f 38 45 f0 0e 38
       3.775673e-05 3.8041966e-05 3.8052316e-05 3.4079207e-05
000260 44 2b 0e 38 1e 81 0c 38 58 9f 10 38 05 19 0a 38
       3.3895732e-05 3.349885e-05 3.4480676e-05 3.2925065e-05
000270 80 32 08 38 11 94 0d 38 0e c1 0f 38 3c df 02 38
       3.247196e-05 3.3754917e-05 3.4273653e-05 3.120232e-05
000280 78 40 0d 38 83 64 08 38 15 6e 00 38 0d f7 07 38
       3.367706e-05 3.2518536e-05 3.06201e-05 3.2416592e-05
000290 63 35 fc 37 e7 65 03 38 6f 36 f0 37 a6 9a f3 37
       3.0065601e-05 3.1327738e-05 2.8635577e-05 2.9039871e-05
0002a0 11 2e e8 37 11 b3 f0 37 8f bf ea 37 87 6c e0 37
       2.7678007e-05 2.8693614e-05 2.7984175e-05 2.6753418e-05
0002b0 08 b9 f3 37 dd 00 ec 37 7e eb d9 37 b1 6f ee 37
       2.905402e-05 2.8133794e-05 2.5978075e-05 2.8423821e-05
0002c0 4d e2 db 37 27 23 e3 37 e2 8d c3 37 ee 09 d3 37
       2.6212214e-05 2.7076878e-05 2.331188e-05 2.5157784e-05
0002d0 49 c1 df 37 b8 43 d5 37 20 c1 d2 37 96 a6 ca 37
       2.6673677e-05 2.5423113e-05 2.5123882e-05 2.415785e-05
0002e0 92 fc d1 37 22 8b cb 37 1e 45 c8 37 7f 02 cf 37
       2.5032354e-05 2.4264275e-05 2.3874043e-05 2.4677485e-05
0002f0 94 70 c1 37 81 58 b6 37 d0 c4 b0 37 6e 8b bf 37
       2.3059816e-05 2.1737304e-05 2.1072483e-05 2.2833901e-05
000300 64 8d b8 37 89 89 c8 37 52 66 b8 37 3e f0 ab 37
       2.200035e-05 2.3905903e-05 2.1982156e-05 2.049666e-05
000310 8b 6c a4 37 8c 70 b1 37 91 80 a9 37 26 c6 a4 37
       1.9600868e-05 2.1152453e-05 2.0206238e-05 1.9642594e-05
000320 c2 11 ad 37 f7 78 a5 37 81 b0 b0 37 51 c4 a8 37
       2.0631476e-05 1.9725861e-05 2.1063026e-05 2.0118578e-05
000330 dc 79 b5 37 15 b1 a8 37 e0 df a0 37 ea 21 9f 37
       2.1633627e-05 2.010962e-05 1.9177736e-05 1.897007e-05
000340 ed 14 a1 37 2e f3 a0 37 a5 ea aa 37 a5 01 9f 37
       1.920244e-05 1.9186726e-05 2.0374844e-05 1.8955043e-05
000350 99 a1 8a 37 be 4a a0 37 52 43 91 37 51 c0 93 37
       1.6526132e-05 1.910829e-05 1.7316695e-05 1.761332e-05
000360 90 1f 90 37 1c d1 94 37 75 b4 94 37 95 a1 96 37
       1.7180835e-05 1.7740349e-05 1.7727007e-05 1.7956636e-05
000370 73 93 8a 37 f3 bf 8c 37 9e c4 8a 37 45 c3 90 37
       1.6519543e-05 1.6778684e-05 1.6542439e-05 1.7257067e-05
000380 4a 41 8b 37 71 b3 8c 37 1e 6c 87 37 7e 17 8c 37
       1.6600494e-05 1.677286e-05 1.61436e-05 1.670024e-05
000390 e2 2d 88 37 d5 08 82 37 e1 62 76 37 d0 a7 81 37
       1.623383e-05 1.550132e-05 1.4685765e-05 1.5456142e-05
0003a0 32 22 7a 37 cf 15 76 37 c6 ac 83 37 92 3f 7d 37
       1.4909123e-05 1.466782e-05 1.569687e-05 1.5094776e-05
0003b0 24 52 78 37 16 69 66 37 a5 2f 76 37 8e 49 76 37
       1.4801077e-05 1.37335355e-05 1.4673836e-05 1.4679868e-05
0003c0 c8 d4 71 37 25 a9 70 37 f7 c1 5e 37 88 5d 67 37
       1.4414261e-05 1.4344497e-05 1.3277392e-05 1.379045e-05
0003d0 c8 40 6a 37 59 87 74 37 71 91 60 37 83 05 5b 37
       1.396257e-05 1.4575046e-05 1.3385304e-05 1.30547005e-05
0003e0 ce 23 5c 37 f7 10 5d 37 d9 3f 52 37 72 5e 50 37
       1.3121358e-05 1.3176576e-05 1.2531841e-05 1.2419756e-05
0003f0 7d ae 49 37 f4 e8 46 37 a6 5d 4f 37 6a ac 46 37
       1.202116e-05 1.1855958e-05 1.2359966e-05 1.1841863e-05

exp_avg f4 [3]
000000 3b ff 80 3e 2f 4b 30 bc c3 f9 76 be
       0.25194725 -0.010760113 -0.24118714

exp_avg_sq f4 [3]
000000 c9 24 4b 3d f6 d4 c6 3b d5 ca 68 3d
       0.049595628 0.0060678674 0.05683406
